chek/checkpoint/linear.pt (torch, 394391 bytes, 1 tensors)

weight f4 [128, 768]
00000000: 148f e13c bdae bf3c 57da 803c 8a29 85bb
00000010: 0fbf c2bc 33dc 55bc c00f 6a3c 3303 f83c
00000020: dcc3 13bd 22a7 34bc 7146 813c c48c 903b
00000030: 4121 0cbd 2b4a 0dbc 0ce6 9bbc 3c08 7fbc
00000040: 6cbb d03c ed4e 8ebc a5e1 7a3c 2bb2 efbc
00000050: 780a 3abc 2f38 09bd bd1c 81bb a686 9ebb
00000060: e73e 08bd c996 b0bc 0b96 0abd eb60 763c
00000070: a669 6e3c cf4e 56bc 5c8a b5bc 189e 95bc
00000080: cd3a 1fbc 62f3 6d3c ca39 a1bb 298c 10bd
00000090: a2b9 a13c 3e80 28bc aaa2 00bb 70e2 363c
000000a0: 9d91 f13c 68de f8bb 7c72 9a3c b2d3 de3c
000000b0: 4638 383c 8a67 a8bc d014 803c d43a 083a
000000c0: 750f 773c 0318 62bc 42d9 cc3b 9d2c 013d
000000d0: 0062 ba3c 6f3c e53c cdba 28bc 2e10 143d
000000e0: 9be0 9fbc 9894 a6bc 35da e9bc 1fdf 9f3c
000000f0: c1c2 003d 4575 02bc 4976 bcba fe1b 49bc
00000100: ac45 adbc a7d9 0abd 87f4 f63c 3d6a e2bc
00000110: 9065 f7bc a258 76bc e96f e63c 2c40 e2bc
00000120: ffa3 96bc e5fc 4a3c 8f61 083d 9a1d f7bc
00000130: 86dc 003d d9d9 b53c c803 663c 1ec4 523b
00000140: 8e5c 01bd 980e d7bc e9ea e23c 9fdf 96bc
00000150: 2b08 37bc 7053 893c b086 12bd fa79 103b
00000160: c146 d93c 0e31 76bc 09cf cd3c 5ca6 c63c
00000170: 0cc4 2d3c 77f7 bdbc fbcf 0ebb 6fec a13b
00000180: dd8c 08bc 19ad 033b ffe9 c3bc ac98 a6bc
00000190: 7bd7 ac3c 9ec4 cebc 211b 00bd 2502 8e3c
000001a0: 8826 713c d2c5 03bd 8ab5 9a3b e6e0 713c
000001b0: bf75 f53c 5407 bdbc fe99 d0bc 2460 e3bc
000001c0: 06ac 0a3d 8922 07bd 6efc 28bc 1a31 183d
000001d0: 5231 083d 3fc2 0fbc a289 82bc 45ff 83bc
000001e0: 73b3 073d 7517 b5bc c448 593b 088f 953c
000001f0: b647 9d3b 00ef e43c b3d0 a23c 333f 71ba
00000200: d769 bf3c c87b 063d d16b 84ba 00c0 8aba
00000210: 02ac dcbc b46e fabb 82d8 8b3c d4fb 8d3c
00000220: 27fa a53c 5688 a43c f99a aa3c 609a ab3c
00000230: f4b5 673c 0a9e dfbc 1985 eebb b5f3 e5bc
00000240: ebcb 913b 0ff3 05bd 2006 0bbd 0a92 d93c
00000250: 2669 5f3b 8f1b 5cbc 55b9 ca3c 59bb c839
00000260: 880c 0bbd 33e0 6a3c 9ad1 e83c 4f00 f8bc
00000270: c527 863c ddbb a1bc a802 ed3c bd4b b8bc
00000280: 8562 25bc aa0b 88bc c582 65bc b392 dfbc
00000290: a410 07bd 1ae2 19bb b110 60bc 17cc d83c
000002a0: 0587 74bc 755a b8bb 7701 65bc 604e 403c
000002b0: 2fff f73c d0ca 873b f7b6 b93c fb79 84bc
000002c0: d063 a0bb c424 aabc f743 bfbb 5c77 c6bc
000002d0: ebba ae3c bd7f 11bd 28a0 ad3c b90a edbb
000002e0: 7442 a9bc 9ae6 e83c 6a12 eebc 1e84 d2ba
000002f0: f66a 57bb a7e4 f8bb c264 a83c eedc 0abc
00000300: a1bf 11bd 8423 d4bc a7de 5cbc 77d6 5a3c
00000310: 7cd3 a23c 4757 72bb f606 9d3c 83ab 62bb
00000320: 3d5f fbbc 680d ccbc cfca 0cbd 00ee c93c
00000330: c682 a93c 212a fe39 1439 053d ec8d 70bc
00000340: 8d45 213c 1da0 5e3c 3503 013b 5ba4 3dbc
00000350: b21c 11bd 1100 ebbb 50c6 a4bc 0e81 6d3b
00000360: eb41 1d3c 9fb5 90bb d1a3 9cbc 1015 143c
00000370: 132f b73c 589f fa3c 79e1 303c 422d 103d
00000380: 484d d8bc 8b4c afbc 2afb e9bb 8920 b039
00000390: bbf1 dcbc 1081 75bc c024 1dbb e778 803c
000003a0: 7cd8 2d3b d8cb 293c ef3c d0bc 55a1 d9bc
000003b0: 4fb6 e8bc 0cb1 d73c 0db6 113d e40c f9bc
000003c0: d47b e8bc 91d8 bd3b 4ee4 90bc 462a 00bd
000003d0: e1b7 da3c afcd c1bc 59b5 09bd 978f 63bb
000003e0: 292b 123d 5f4b e0ba 11f2 07bd b6ea 00bc
000003f0: 8399 c23c 769f a73c 7f21 adbc 3f3e 7639
0.027534045 0.023398751 0.015729113 -0.0040637897 -0.023772744 -0.013052988 0.014285982 0.030274963
-0.036075458 -0.011026176 0.01578066 0.004411312 -0.0342114 -0.00862364 -0.019030593 -0.015565928
0.025479995 -0.01737162 0.015312587 -0.029259762 -0.011355035 -0.033500846 -0.0039401934 -0.0048378287
-0.033263113 -0.021556275 -0.0338345 0.0150377555 0.014551556 -0.013080313 -0.022160701 -0.018263862
-0.009718609 0.014523359 -0.004920219 -0.035289917 0.019741837 -0.010284482 -0.0019628205 0.011162385
0.02948838 -0.0075948723 0.018853419 0.027200554 0.011243885 -0.020557184 0.015634924 0.00051967544
0.015079369 -0.01379967 0.006251485 0.031536687 0.022751808 0.027982919 -0.010298443 0.036148243
-0.01951628 -0.020334527 -0.028546432 0.019515572 0.03143573 -0.00796253 -0.0014378513 -0.01227474
-0.021151386 -0.033898976 0.030145897 -0.027638549 -0.030199796 -0.01503578 0.028129535 -0.02761849
-0.018388746 0.012389396 0.033296164 -0.030165482 0.031460308 0.022198604 0.014038987 0.0032160352
-0.031582408 -0.026252076 0.027699905 -0.018417178 -0.011171381 0.016763419 -0.03577298 0.002204536
0.026522996 -0.015026344 0.025123136 0.024249248 0.010605823 -0.02318929 -0.0021791446 0.004941515
-0.008334366 0.0020092188 -0.023915289 -0.020336471 0.021098843 -0.025240239 -0.031275872 0.017335007
0.014718659 -0.032171078 0.004721348 0.014763093 0.029963372 -0.023074783 -0.025464054 -0.027755804
0.03385546 -0.03299192 -0.01031409 0.037156202 0.03325016 -0.008774339 -0.015934769 -0.016112933
0.03313012 -0.022105912 0.0033154944 0.01825668 0.0047998084 0.027945995 0.019874906 -0.0009202838
0.023365898 0.03283289 -0.0010102933 -0.0010585785 -0.026937488 -0.0076425914 0.017071012 0.017331995
0.020260883 0.020084541 0.02082585 0.020947635 0.014142502 -0.027297039 -0.00727905 -0.02807031
0.0044493577 -0.032702502 -0.033941388 0.026558895 0.0034089773 -0.013434305 0.024746576 0.00038286558
-0.033947498 0.01433568 0.028420258 -0.030273585 0.016376385 -0.0197429 0.02893193 -0.022497052
-0.01009429 -0.016607124 -0.014008229 -0.027291631 -0.032974854 -0.0023480714 -0.013675855 0.026464505
-0.014924769 -0.0056260177 -0.0139774 0.011737436 0.030273048 0.00414405 0.022670252 -0.016171446
-0.004894711 -0.020769484 -0.0058369595 -0.024226837 0.021329364 -0.03552221 0.021194533 -0.0072339443
-0.02066157 0.028430272 -0.029061515 -0.0016061103 -0.003287015 -0.007595617 0.020555858 -0.008475525
-0.035583142 -0.025895841 -0.013480819 0.0133567965 0.019876234 -0.003697829 0.019168358 -0.0034587092
-0.030685062 -0.024908736 -0.0343731 0.02464962 0.02069224 0.00048478044 0.032525137 -0.014682274
0.009843242 0.013587979 0.001968575 -0.01157483 -0.035427757 -0.007171639 -0.020114094 0.0036240253
0.009598236 -0.004416182 -0.019121082 0.009038225 0.022361314 0.03059356 0.010795944 0.03519941
-0.026404038 -0.021398803 -0.007140537 0.00033593577 -0.026970735 -0.014984384 -0.0023978204 0.01568265
0.002652674 0.010363542 -0.02541968 -0.026566187 -0.028407244 0.02632954 0.035574008 -0.030401655
-0.028379358 0.005793639 -0.01768699 -0.031290315 0.026699008 -0.023657648 -0.033620212 -0.0034723037
0.035685692 -0.0017112306 -0.033189837 -0.007868459 0.02375484 0.02046178 -0.021134136 0.00023483577
